on-device/tweets_classifier/app/src/main/assets/model.tflite (tflite, 809902 bytes, 5 tensors)

sequential_1/embedding_1/embedding_lookup/27572 f4 [5676, 32]
00000000: 023c 33bd 13dc 863d 419c aabb 4fb2 ab3c
00000010: 918d afbc 1265 b8bb dcec 34bd 2f7c 203d
00000020: 2448 a2bc 6492 8bbc b2f5 37bd e7e6 053d
00000030: 53ee d3bc 43f6 f53b dd88 9f3d 62bf f83c
00000040: f75a cfbc 4564 2ebe 7118 a73d 3a93 d93b
00000050: 284d 073e 7f54 233d bc06 24bd a1d1 233d
00000060: dafe 743a 4a02 2abd 7285 5f3d cca0 80bd
00000070: 4538 5abd fb7d 763d 5072 bb3b 7a63 713d
00000080: 898c a7bb c241 55bd 97da 1dbd 30dc 193c
00000090: 9667 913c 8822 37bc 21b8 d8bc b6a3 2bbd
000000a0: e99b 9abc a6b7 ae3d d4c6 6e3c a825 5fbd
000000b0: 22e8 6dbb fc27 483b b38d 043e fee5 9b3d
000000c0: 69a6 b9bd 35c2 52be ee7b 463c 6c38 483d
000000d0: d2d0 0f3e 27e1 233d 73b2 da3c fcdd 5f3d
000000e0: 48a8 d4bc 4d5d 28bd d3ba 753d 4b0b 353c
000000f0: 8841 c0bc dc74 b03d acd9 08bd 0240 c33c
00000100: 26a4 d63c 4616 91bc 921f c23c 34a8 583c
00000110: f30c 16bd 4053 a4ba 5712 3b3d a63f bf3c
00000120: c7e8 9dbc 1dde 19bd 1902 473d 579b 433d
00000130: dad1 d3bc c241 c83c 5841 0cbc 23e3 193d
00000140: 90a8 2ebd a3a9 40bd a07b 95ba 1272 a23c
00000150: 0dd5 20bd 67e7 103d 4759 b2bc 62b1 df3c
00000160: a69c 9f3c bd4c 1cbd c007 68bc 82f0 d53c
00000170: daf5 efbc c7c8 3abd a8a1 19bc 1a9a 0abd
00000180: b6a7 89be ff4a 653e b0f4 843e 8f55 91be
00000190: bd1c 95be 7e66 673e 9c15 823e 4c58 863e
000001a0: f518 833e 18c7 59be 75f3 71be ba3a 6e3e
000001b0: 878f 863e 9343 853e e039 29be 75cb 69be
000001c0: f601 803e e77a 803d cc70 9e3e 31b7 91be
000001d0: 976d 5fbd 0bf4 873e fc53 64be c277 48be
000001e0: fc13 863e 4442 75be 5b62 85be 1126 84be
000001f0: 9f6d 6abe b5dc 623e 5b67 823e bc17 81be
00000200: 6dee 123e 0a63 2fbe 19c5 4ebe d7d3 5d3e
00000210: 0192 2e3e d81c 18be c6ee f0bd e5dd 47be
00000220: c813 4bbe c2dd 5a3e 4e89 073e 6d94 01be
00000230: 313f 39be f610 61be 9df5 0d3e 6e5e 023e
00000240: 7cff 53be 60b9 39be 3571 06be a0aa 553e
00000250: e00e 583e 3269 29be 2022 233e d6e5 2c3e
00000260: 5300 fcbd f8d0 e03d 1ee7 3f3e fbf1 1b3e
00000270: f0ec 133e 5f3c 64bd f053 0fbe 042a 323e
00000280: 2b04 40be 27aa 7c3e e220 193e 9548 70be
00000290: 8994 1fbe c9af 5d3e ce31 b13d 02aa 443e
000002a0: da93 683e c2e5 70be 8d60 2ebe 62ce 363e
000002b0: ef58 0a3e 3d9d 323e 74d9 d8bd 7ea3 63be
000002c0: c055 493e 898a 553d 08f2 363e a2bd 64be
000002d0: 9569 04bd 783c 1c3e 6e54 4abe 3383 38be
000002e0: e51e 643d ad21 4cbe 7325 23be fac5 79be
000002f0: 969d 3ebe 40e8 c53b a857 193e 98a0 0ebe
00000300: 1120 0abe 5f72 153e 1780 183d 1b18 07be
00000310: 5162 82bd d4e8 f83d 3ae7 413d a7b2 bb3d
00000320: b0f8 f63d 6e67 89bd f640 b3bd aa64 2a3d
00000330: b471 d63d 47c8 523d 4fde 66bb de02 45bd
00000340: 6810 c43d c915 5ebe c243 493e c3e3 74bd
00000350: 0ce3 2b3e 85db 253e cf46 82bd fbff 60bd
00000360: a95b 513d b209 d9bd 5e0d afbd fbfc e3bd
00000370: 2b57 c9bd 1109 883d 72d4 c93d 2593 c5bd
00000380: eabb 9abe c897 7e3e 454c 883e a3ea 87be
00000390: d767 84be f58d 773e 980e 3e3e 6028 993e
000003a0: 7c16 a03e 2b70 8abe 9b53 6fbe 1306 623e
000003b0: 6ba8 7e3e 72ba 8a3e de2e 31be c6a1 94be
000003c0: a67f 8c3e d3c8 013e c708 623e 7a03 5ebe
000003d0: c54d 53bd 1784 743e 3476 88be 8a3d 97be
000003e0: 46ee 263e 69fb 4dbe 70a1 92be f503 64be
000003f0: 74e5 73be 3615 9c3d 0391 a23e 2ed4 60be
-0.0437584 0.065849446 -0.005206615 0.020959048 -0.021429809 -0.005627283 -0.0441712 0.03918093
-0.01980979 -0.017037578 -0.044912048 0.03269091 -0.025870478 0.0075061633 0.077897765 0.030364696
-0.02531193 -0.17030437 0.08158959 0.006639865 0.13213027 0.039875504 -0.040045485 0.03999484
0.0009345837 -0.04150609 0.054570623 -0.062806696 -0.05327632 0.060178738 0.005720414 0.05893276
-0.0051131886 -0.052064665 -0.03853854 0.009390876 0.017749589 -0.0111776665 -0.026454987 -0.041904174
-0.018873172 0.08531122 0.0145737715 -0.05447927 -0.0036301692 0.003054141 0.12944679 0.07612227
-0.09064943 -0.20581897 0.012114508 0.048881933 0.14044502 0.040009644 0.02669642 0.05465506
-0.025959149 -0.041104604 0.059992623 0.011050056 -0.023468748 0.08616039 -0.033410713 0.023834232
0.026201319 -0.017710816 0.023696695 0.0132236965 -0.036633443 -0.0012537017 0.045671787 0.02334578
-0.019276036 -0.03756534 0.048585985 0.047755565 -0.025856901 0.024445418 -0.008560501 0.03757013
-0.042641222 -0.04703678 -0.0011404641 0.019829784 -0.03926568 0.035376932 -0.021771086 0.027306262
0.019483875 -0.03815912 -0.014162004 0.02611566 -0.029292036 -0.045601632 -0.009376921 -0.03383837
-0.26885766 0.2239189 0.25967932 -0.2838559 -0.29123488 0.22597691 0.25407112 0.2623924
0.25604978 -0.21267354 -0.23628028 0.2326459 0.26281378 0.26028118 -0.16525984 -0.22831519
0.25001496 0.06273442 0.30945432 -0.28460076 -0.054547872 0.26553378 -0.22297662 -0.19576934
0.26187122 -0.2395106 -0.26051602 -0.25810292 -0.2289338 0.22154506 0.2546948 -0.2521342
0.14348765 -0.17127624 -0.20192374 0.21662842 0.17047884 -0.14854753 -0.117642924 -0.1951824
-0.19831765 0.21373656 0.13235971 -0.12654276 -0.18090512 -0.21979126 0.13863225 0.12731335
-0.20702928 -0.18137121 -0.13129123 0.2086587 0.21099424 -0.16544035 0.15930986 0.1688455
-0.12304749 0.109773576 0.18740508 0.15229027 0.14445853 -0.055721637 -0.13996863 0.1739884
-0.1875159 0.24674283 0.1495395 -0.23465188 -0.15584005 0.21649088 0.086520776 0.19205478
0.22712651 -0.23525146 -0.17029019 0.17852166 0.13510488 0.17442794 -0.10588351 -0.22230336
0.19661617 0.05213407 0.17865765 -0.22337964 -0.032327253 0.15257442 -0.1975877 -0.18018799
0.055693526 -0.19934721 -0.15932254 -0.24391928 -0.18614802 0.0060396492 0.14974844 -0.13928449
-0.13488795 0.1459441 0.03723153 -0.1319279 -0.063664086 0.121537834 0.047339655 0.091649346
0.12059152 -0.06709181 -0.08752625 0.041599907 0.10470906 0.05146053 -0.003522772 -0.048098437
0.09573442 -0.21687998 0.19654754 -0.059787523 0.1678583 0.16197021 -0.06361162 -0.054931622
0.051112805 -0.10597552 -0.085474715 -0.111322366 -0.09831079 0.06642354 0.09854974 -0.09647206
-0.30221492 0.24862587 0.2662069 -0.265462 -0.25860474 0.24175246 0.18560255 0.29913616
0.31267154 -0.27038702 -0.23371737 0.2207263 0.24868934 0.2709537 -0.17303035 -0.29029673
0.27441138 0.12674265 0.22073661 -0.21681014 -0.05158784 0.23878513 -0.26652682 -0.29539138
0.16301832 -0.20115437 -0.28638792 -0.22267134 -0.23817998 0.07621233 0.3175126 -0.2195594

sequential_1/dense_3/BiasAdd/ReadVariableOp/resource f4 [2]
00000000: 7e79 3d3e 7d79 3dbe
0.18503377 -0.18503375

sequential_1/dense_2/BiasAdd/ReadVariableOp/resource f4 [32]
00000000: 5e17 0d3e db32 083e 0000 0000 3f42 4fbd
00000010: 80f3 b9b7 8dc4 ca3d 0224 deba 8251 09bc
00000020: 717f 873c 9908 08bc 4dce ccbc f6cb e5bb
00000030: e3d1 033d b7fe 0b3d 0000 0000 d785 36bc
00000040: 9f15 a03c 321f cebc 4df2 123d 58aa 1bbb
00000050: f454 ac3d 0000 0000 0000 0000 a5ee 5e3d
00000060: 8ddd c33d 4da7 cabc 12e3 ee3d 0000 0000
00000070: 2652 3c3d e4ff e73c 0000 0000 aa52 b63c
0.13778445 0.1330065 0.0 -0.050600287 -2.2167107e-05 0.0990077 -0.0016947987 -0.008381249
0.016540261 -0.008302831 -0.025000716 -0.0070128394 0.032182585 0.034178462 0.0 -0.011140308
0.01954156 -0.02516136 0.035875607 -0.0023752656 0.08414641 0.0 0.0 0.054426808
0.09563742 -0.024737978 0.11664404 0.0 0.04597678 0.02832026 0.0 0.022256214

sequential_1/dense_2/MatMul f4 [32, 32]
00000000: 9fe9 1f3e bd30 4cbe b999 a3bf 3a1f 903f
00000010: 3af0 063f 224b bcbf 05dc b6be f490 2ebf
00000020: 9cc8 7dbf 693c 873f 8207 c43e 885c 07bf
00000030: a9f9 49bf a956 9bbf b3ce 133f bcd1 443f
00000040: 32fa f4be 4580 30be 879c ecbe cf24 673f
00000050: bbdb 933e 4b87 debe 2381 363f b6e2 ce3e
00000060: 83f5 7fbf 0d33 ec3e 1fe0 303f 9cb7 023f
00000070: d825 a03e 783b 1b3e 9a8f 9fbf 1ceb 2a3f
00000080: 9291 cc3e e77e fbbe affc 99bf 1b9c 433f
00000090: 5b29 783f b8e7 b3bf 9159 43be 74a7 0cbf
000000a0: eeec 6ebf ec32 6b3f 742a cf3e a654 1dbf
000000b0: 9589 72bf febf 6bbf e8c6 993e bcf3 253f
000000c0: 23b3 5dbf 6b3d aebe fa27 2bbe bba8 8a3f
000000d0: 2153 a93e b081 2cbf 221d d23e 38ea 493f
000000e0: 5bc6 a6bf b838 7c3e beeb c33e c379 563e
000000f0: 25d1 8b3e d81a febd c733 69bf 07b0 bb3e
00000100: 4c5f f2bd eaa6 87be c0a4 63be 3e85 c5bd
00000110: d8e6 403e be16 b9bd ebdc 7cbe 58c1 da3d
00000120: 9015 233e 6caf bebd 3ee5 793e 5a63 553e
00000130: 00f8 c03b 4a05 153e 845a 8fbe 3f0b 82be
00000140: 045f bf3d b609 493e 24a9 973d 682b 6e3d
00000150: dad0 453e 744d 75be 40b4 d4bb 3afe 7d3e
00000160: 61a3 13be b1b4 37be aaf2 75be c810 473d
00000170: 965b 6a3e 39c4 89be 4208 4c3e a956 75be
00000180: a361 fcbd 52b2 4d3e 3140 343e 8283 6fbe
00000190: fdf4 103e 07bc 50bd 40b9 bcbd 1931 c43d
000001a0: be88 45be 6e2b 8a3e 4f7f a73e 3a3c 73bd
000001b0: f034 e23d 4b71 ffbd 93f6 d1bd 10a7 72be
000001c0: 6dd5 8e3c 79db 7abe c3d7 0b3e 44e7 2cbe
000001d0: 20dc 293e 15c6 33be 372f 8d3e 35ec 82be
000001e0: 6a7d 643d d3df 3cbe 33a1 27be a48a febd
000001f0: 282e a23e 9be3 123d 1129 5f3e 6c7d 87be
00000200: 5ca2 6d3e 8ed0 c6bd ec54 913e 36e8 783e
00000210: 2dd0 57be 2f99 363e 8fea 60bb 6568 37be
00000220: 3972 ecbd 206a 7abc c4a1 2d3e d85f 4bbe
00000230: 3393 69be d3fc 02bc 141d 8dbe 2e16 3a3c
00000240: f320 91bd 0b91 1ebd cc91 8abd c2d1 74bd
00000250: 38c2 4ebe 88a5 86be d4e3 883e 1799 3dbe
00000260: 7820 f43d d7c3 20be 6bc0 883e dd73 43be
00000270: ec47 04be 5ced 6fbe 5573 863e ae1b 2a3e
00000280: 9626 073f 313c 6ebe 7cea 74bf 5166 923f
00000290: c659 793f 44da c1bf 7ec2 aebe c08c 12bf
000002a0: 037e 8bbf 1e0f 543f 2c56 993e bdb6 d8be
000002b0: 0a5e f7be 443d b2bf f2d8 6c3e 2373 513f
000002c0: 3a7b 32bf 8016 7dbe 2347 9bbe ef34 933f
000002d0: 6810 dd3e 17af 00bf ca74 753e 4e6a 213f
000002e0: 62eb a1bf 15a1 113f fc39 383f bcb5 403e
000002f0: 73c9 dc3e 2e0d 8bbe f7e8 96bf 16cf 243f
00000300: 4130 f2bd 4a86 f3bd 188b ffbd fe0d 3b3e
00000310: 3339 98be 7e7b d5bd c70c 483e d8e7 9fbd
00000320: f7e5 c8bd 9b81 1ebd 30e5 89bc c3ef 53bc
00000330: c317 86be 53e0 bb3d be22 38bd a163 623e
00000340: e7fb 103d 99ea 253e 60a3 6dbe 0d39 853c
00000350: 4f98 4f3e 02c7 833c 824d c1bd c04a bebd
00000360: 976e 7e3e b8fe 1cb9 f900 83be a79b 9bbe
00000370: 7827 933e 1dd1 d53d f5ff eabd f78f 88be
00000380: 197f e9bd 671f 123e cc60 7abe 12d5 8e3e
00000390: f997 64bd 24ab 3f3d d3f8 843d 1aaf 30be
000003a0: 58c4 80be 9bcc 2b3e 3709 7f3d d20c 6ebe
000003b0: 79f5 abbd a236 8cbc 4638 6dbd 7e71 2ebe
000003c0: 8b04 f43d c93b a13d 521f 283e 50b9 5abe
000003d0: 595c 263e 76c8 9dbe fb7c 82be 19c4 ccbc
000003e0: 03f1 893c 0c8c 7b3e 22fc bd3d 4456 3b3e
000003f0: 9132 c03c 07b3 2fbd 9336 063e 0f6a 62be
0.15616463 -0.19940467 -1.2781287 1.125953 0.52710307 -1.4710429 -0.35714737 -0.6818993
-0.9913423 1.0565311 0.38286978 -0.52875566 -0.78896576 -1.2135822 0.5773727 0.7688253
-0.47847134 -0.17236431 -0.4621317 0.9029054 0.2887858 -0.43462595 0.71290797 0.40407342
-0.99983996 0.461327 0.6909198 0.51061416 0.31278872 0.15159404 -1.2465699 0.66765
0.3995481 -0.49120256 -1.2030238 0.76410073 0.96938103 -1.405509 -0.19077136 -0.54943013
-0.93330276 0.91874576 0.40462077 -0.6145729 -0.94741184 -0.9208983 0.30034566 0.64825034
-0.86601466 -0.34031233 -0.16714469 1.0832742 0.33071235 -0.6738539 0.41037852 0.78873014
-1.3029283 0.24631011 0.38265795 0.20944886 0.27308002 -0.12407464 -0.9109463 0.36657736
-0.11834583 -0.26494533 -0.22230816 -0.096445546 0.1883806 -0.09037541 -0.24693649 0.10681409
0.15926194 -0.09310803 0.24403855 0.20838681 0.005888939 0.14552799 -0.27998745 -0.25399205
0.09344295 0.1963261 0.07405308 0.058146864 0.19317952 -0.23955327 -0.006491214 0.24804011
-0.14417793 -0.17940022 -0.2401835 0.04859999 0.228865 -0.26907519 0.19925025 -0.2395884
-0.1232331 0.20087555 0.17602612 -0.2339001 0.14155956 -0.050960567 -0.09215021 0.09579677
-0.19290444 0.2698626 0.32714316 -0.05938361 0.11045253 -0.12472781 -0.102521084 -0.23696542
0.017435754 -0.24497785 0.13656525 -0.16885096 0.16587877 -0.17556031 0.27575085 -0.25570837
0.055783667 -0.18444757 -0.16370086 -0.12428787 0.3167584 0.035861593 0.2179301 -0.26462877
0.23206466 -0.097077474 0.28385103 0.24307331 -0.21075507 0.17831872 -0.0034319495 -0.17910917
-0.11545224 -0.015284091 0.1695624 -0.1986078 -0.22810058 -0.007994848 -0.27561247 0.011357827
-0.07086363 -0.038712543 -0.0676609 -0.059770353 -0.20191276 -0.26298165 0.2673632 -0.1851543
0.119202554 -0.15699707 0.26709303 -0.19087167 -0.12918061 -0.23430389 0.26259866 0.16612121
0.5279325 -0.23265149 -0.95670295 1.1437474 0.9740261 -1.5144734 -0.3413276 -0.5724602
-1.0897831 0.82835567 0.29948556 -0.42326918 -0.48313934 -1.3924947 0.23129633 0.8181631
-0.6971928 -0.24715614 -0.3032771 1.1500529 0.4317658 -0.50267166 0.23970333 0.63052833
-1.2649958 0.56886417 0.7196348 0.18819326 0.43122444 -0.27158493 -1.1789845 0.6437849
-0.1182561 -0.11890848 -0.12477702 0.18267056 -0.2973114 -0.10423945 0.19536124 -0.078078926
-0.09809487 -0.03869782 -0.016832918 -0.012935582 -0.26190004 0.09173646 -0.044955008 0.22108318
0.035396483 0.16202773 -0.23206854 0.016262555 0.20272945 0.016086105 -0.094386116 -0.09291601
0.24846874 -0.0001497221 -0.2558668 -0.3039219 0.2874105 0.10440276 -0.11474601 -0.26672336
-0.11401195 0.14269792 -0.24450988 0.27896935 -0.055808995 0.04679407 0.06492772 -0.17254296
-0.25149798 0.1677727 0.062264647 -0.23247078 -0.083964296 -0.017115895 -0.057914995 -0.17035481
0.11914929 0.07872731 0.16418198 -0.21359754 0.16246165 -0.30817002 -0.25485978 -0.02499585
0.016838556 0.24565142 0.09276606 0.18294626 0.023461612 -0.042895343 0.13106756 -0.2211077

sequential_1/dense_3/MatMul f4 [2, 32]
00000000: dec2 2b3f 013c 943f 707d 67be 3394 ebbd
00000010: ca3d b13e e9e4 1f3f 80cd 4e3c 4444 a6be
00000020: a4b0 7fbf 688e a93d fb66 62be 00f7 de3d
00000030: 267e 9cbf 5a63 88bf 1b27 863e 1a43 b53e
00000040: 1706 98bf 301b aebd 2dda a2bf 3a62 9dbf
00000050: 0dbb 363f c0b6 eb3c cd2d d43e 2cc6 9e3f
00000060: b01c 893f 9598 c8be 5c62 a83f b63e 673e
00000070: 2869 a3bf e936 65bf ca96 153e 8b73 26bf
00000080: 1ce0 a2bf 38a6 5abf f06f 793d c20f 8bbe
00000090: d0e1 783e 2ba3 aebf c76c cb3e aaa0 253e
000000a0: 8543 a33f 095d 41be aeab d63d 319f 363d
000000b0: 0b92 7d3f 9924 853f 70f5 863d 4184 4bbe
000000c0: e44f a13f 29e3 b5be 2e78 a33f 3ab8 243f
000000d0: 4ad2 25bf 83ba c63e e29e 683e 0534 adbf
000000e0: 94a0 61bf 3d99 9c3d d171 0ebf 1675 a5be
000000f0: 23df 653f e406 713f 33f5 ca3e 1374 983f
0.6709422 1.1580812 -0.22606444 -0.11502876 0.34617454 0.62458664 0.012622237 -0.32473958
-0.9987891 0.08279115 -0.22109596 0.10886955 -1.2225997 -1.065532 0.2620171 0.35402757
-1.1876858 -0.08501279 -1.2722832 -1.2295601 0.71379167 0.028773665 0.41441193 1.2404227
1.071188 -0.3917891 1.3155017 0.22582516 -1.2766466 -0.8953691 0.14608303 -0.65020055
-1.2724643 -0.8540988 0.060897768 -0.2716046 0.2430489 -1.3643545 0.39731428 0.1617457
1.275498 -0.18883146 0.10481964 0.04458541 0.9905097 1.0401794 0.06589782 -0.1987467
1.2602506 -0.35524872 1.2771051 0.6434361 -0.64774 0.38814172 0.22716859 -1.35315
-0.8813565 0.076464154 -0.5564242 -0.32315892 0.89793605 0.9415114 0.39640197 1.1910423
